weights/model.pt (torch_old, 43372 bytes, 8 tensors)

conv1.weight f4 [16, 3, 3, 3]
-0.13664798 0.088994645 0.08835321 -0.022907432 0.010155409 0.04693791 0.017287873 -0.04300499
-0.028112026 -0.12676643 -0.049285024 -0.05571623 -0.038713697 0.12356002 0.013670632 0.08580773
-0.13479763 0.035226025 -0.16908482 -0.18020621 -0.09535815 0.15149039 0.036189187 -0.18518761
-0.18283416 0.021497462 -0.085138895 0.1072799 -0.104474574 0.0767003 -0.09563993 -0.18243447
-0.1755643 0.17772669 0.008022181 0.08364625 0.061119996 -0.07572275 -0.10662861 -0.17421314
-0.18478188 -0.062932976 -0.18998785 0.019094879 -0.05370816 0.028527172 -0.15871403 -0.039254867
0.026452642 -0.07030082 -0.13401176 -0.0014070574 -0.06786288 -0.08669794 0.07723327 0.17349353
-0.02594752 0.12552373 0.16026276 0.058435835 -0.09835389 0.062512204 0.03212649 -0.1307915
0.1270632 0.17061977 -0.18064271 -0.100273706 -0.059873495 -0.009350387 -0.12195342 0.009430432
-0.043447603 -0.13493383 -0.024220547 0.11125392 -0.17973928 0.115159355 -0.16410722 -0.03341655
-0.013089545 -0.1500348 -0.12651244 0.098070174 0.15054904 -0.16537708 -0.14133187 -0.12947962
-0.058321062 -0.04547724 0.10285031 0.036586594 0.08878101 0.033034977 -0.14044714 -0.18069859
-0.0002441784 0.1322666 -0.098084755 -0.06317267 0.09199102 0.09900947 -0.1522695 0.12056359
-0.110693336 -0.07238799 -0.04136059 0.08621288 0.077164106 0.061689857 -0.094733186 0.13173193
0.11988004 -0.10402201 0.046786685 0.10342846 0.16936283 -0.04353165 -0.15369372 0.109001786
-0.12497305 -0.1788853 -0.04788853 -0.18910143 -0.19524734 -0.03199034 -0.02272983 0.051753905
-0.07418447 0.13269348 -0.119992614 0.087005965 0.05972356 -0.0223555 -0.15511808 0.0046568355
0.07611663 -0.033397436 0.07288022 0.13431148 -0.20542407 0.13622124 0.036483727 -0.0819534
0.035967197 -0.06290194 0.06893622 0.13147049 0.09876728 -0.05378177 -0.012741411 0.020300517
-0.08168827 0.031838078 -0.16762987 -0.056456067 0.1093025 -0.024142172 0.11676588 0.1054852
-0.13588999 -0.13116011 0.08531949 0.089295454 0.052523404 -0.091559164 -0.11021186 -0.16175058
-0.105285965 0.11803144 0.087643094 -0.07339879 -0.17393903 -0.1398806 0.001384603 -0.09542512
0.16839463 0.17622843 0.15269144 0.18113029 -0.09547168 0.050086416 -0.035608962 -0.13280925
-0.14680345 -0.19008371 0.06138554 -0.04085233 -0.13450223 -0.08462358 0.15984549 0.019833874
0.16706596 -0.045506235 0.11583076 0.11584101 -0.07813793 0.102639705 -0.09362901 -0.028713694
-0.06473545 0.012863351 0.117784634 0.05161638 -0.10048094 0.1795376 -0.17389363 -0.10389558
-0.14508663 -0.11668005 0.056116693 -0.18585758 -0.18084814 -0.018347256 -0.023176482 -0.08198012
0.051267244 -0.17899074 -0.12060327 -0.012523421 -0.075597286 -0.023191312 -0.17761078 0.16234651
0.14685561 -0.12484339 0.09182571 0.023028916 0.12957424 -0.1491028 -0.17053038 0.17171243
0.12585849 -0.14285856 -0.08195687 0.05841607 -0.0101484675 0.120986946 0.09839662 0.09003416
-0.17860691 0.07485831 -0.14877748 0.029099852 0.1129033 -0.07703121 -0.17603855 -0.032514308
0.13442765 0.08093253 -0.14095517 0.0796164 0.009650273 -0.1612078 -0.19488952 0.1737023
00000000: 73ed 0bbe d342 b63d 87f2 b43d 5ea8 bbbc
00000010: df62 263c f741 403d 4c9f 8d3c 0026 30bd
00000020: 314b e6bc 0fcf 01be 18df 49bd b436 64bd
00000030: 4192 1ebd 090d fd3d c9fa 5f3c f7bb af3d
00000040: 6408 0abe 2a49 103d 9224 2dbe fa87 38be
00000050: 224b c3bd 4c20 1b3e 1d3b 143d d2a1 3dbe
00000060: e138 3bbe 721b b03c 4d5d aebd 90b5 db3d
00000070: c4f6 d5bd 0c15 9d3d dede c3bd 1ad0 3abe
00000080: 21c7 33be fcfd 353e 776f 033c ba4e ab3d
00000090: f658 7a3d 8714 9bbd 1a60 dabd ee64 32be
000000a0: 7637 3dbe 01e3 80bd 2d8c 42be dd6c 9c3c
000000b0: 16fd 5bbd d1b1 e93c ee85 22be b6c9 20bd
000000c0: 36b3 d83c e0f9 8fbd 613a 09be 036d b8ba
000000d0: b2fb 8abd b18e b1bd 7a2c 9e3d 4aa8 313e
000000e0: e58f d4bc 4b89 003e ec1b 243e 6a5a 6f3d
000000f0: c46d c9bd 6606 803d 1197 033d 35ee 05be
00000100: db1c 023e f3b6 2e3e 67fa 38be 4d5c cdbd
00000110: e93d 75bd 5e32 19bc b7c2 f9bd 1982 1a3c
00000120: 1df6 31bd 182c 0abe 2b6a c6bc 18d9 e33d
00000130: 930d 38be abd8 eb3d b90b 28be cbdf 08bd
00000140: 8875 56bc b9a2 19be 7a8c 01be 04d9 c83d
00000150: 8729 1a3e 9c58 29be 4db9 10be 4e96 04be
00000160: 11e2 6ebd 5846 3abd 2fa3 d23d d3db 153d
00000170: d1d2 b53d af4f 073d 60d1 0fbe 0d09 39be
00000180: 1205 80b9 e570 073e a9e0 c8bd ac60 81bd
00000190: ca65 bc3d 7ac5 ca3d 89ec 1bbe 0bea f63d
000001a0: 30b3 e2bd 2840 94bd b969 29bd 6190 b03d
000001b0: 3708 9e3d 81ae 7c3d 7903 c2bd bce4 063e
000001c0: ab83 f53d 7e09 d5bd 65a3 3f3d 4dd2 d33d
000001d0: 736d 2d3e 3e4e 32bd e361 1dbe 543c df3d
000001e0: dff1 ffbd b52d 37be c326 44bd cea3 41be
000001f0: ebee 47be 4e08 03bd e933 babc e7fb 533d
00000200: 07ee 97bd cde0 073e b0be f5bd 2f30 b23d
00000210: b1a0 743d e222 b7bc 46d7 1ebe 5e98 983b
00000220: 09e3 9b3d c0cb 08bd 3a42 953d f388 093e
00000230: b05a 52be 957d 0b3e f66f 153d 2fd7 a7bd
00000240: 5752 133d bbd2 80bd 6f2e 8d3d 33a0 063e
00000250: 8046 ca3d 464a 5cbd 5ac1 50bc 454d a63c
00000260: 2e4c a7bd a568 023d 2aa7 2bbe 7a3e 67bd
00000270: fdd9 df3d cec5 c5bc f322 ef3d a008 d83d
00000280: bf26 0bbe d64e 06be fcbb ae3d 89e0 b63d
00000290: c822 573d 5f83 bbbd c1b6 e1bd f2a1 25be
000002a0: 2ba0 d7bd 78ba f13d 397e b33d 1b52 96bd
000002b0: 131d 32be dc3c 0fbe 917b b53a 3f6e c3bd
000002c0: a46f 2c3e 3a75 343e 255b 1c3e 387a 393e
000002d0: a886 c3bd 6a27 4d3d b4da 11bd 26ff 07be
000002e0: a553 16be 4ea5 42be 676f 7b3d c654 27bd
000002f0: f4ba 09be 214f adbd 89ae 233e a67a a23c
00000300: 5713 2b3e bf64 3abd ad38 ed3d 0d3e ed3d
00000310: c706 a0bd c434 d23d 91c0 bfbd fb38 ebbc
00000320: 0594 84bd cec0 523c 1239 f13d b36b 533d
00000330: f3c8 cdbd b4d8 373e 2c11 32be 35c7 d4bd
00000340: 9791 14be f3f5 eebd 9eda 653d 7351 3ebe
00000350: 4130 39be fc4c 96bc 9bdc bdbc 31e5 a7bd
00000360: 9afd 513d 5949 37be d9fe f6bd 092f 4dbc
00000370: c0d2 9abd b5fb bdbc 9adf 35be 2a3e 263e
00000380: 5161 163e e4ad ffbd 1e0f bc3d 23a7 bc3c
00000390: 1caf 043e 68ae 18be 849f 2ebe 62d5 2f3e
000003a0: 0ce1 003e 8449 12be 01d9 a7bd b045 6f3d
000003b0: c245 26bc 01c8 f73d 2b84 c93d d463 b83d
000003c0: bbe4 36be 504f 993d 2059 18be d062 ee3c
000003d0: d839 e73d 8ac2 9dbd 7343 34be b92d 05bd
000003e0: 67a7 093e f4bf a53d 8d56 10be ec0d a33d
000003f0: 2e1c 1e3c a813 25be 1e91 47be 04df 313e

conv1.bias f4 [16]
0.0074728183 -0.18160444 0.19065116 0.1305876 -0.08009951 -0.025102431 0.12321851 -0.05278763
-0.08971378 -0.07941881 0.06196519 -0.1271047 0.12645064 0.014915439 0.010843049 0.028840153
00000000: 8bde f43b 84f6 39be 0f3a 433e c1b8 053e
00000010: 360b a4bd 9da3 cdbc fc59 fc3d d837 58bd
00000020: dcbb b7bd 54a6 a2bd 36cf 7d3d bc27 02be
00000030: 477c 013e e35f 743c 0ba7 313c 2f42 ec3c

conv2.weight f4 [32, 16, 3, 3]
0.00844384 -0.060102098 -0.03318513 -0.03225056 0.040111873 -0.008307932 -0.08073321 -0.070518225
0.014234595 0.0058990167 -0.02209099 0.0075158374 -0.023031548 0.0634247 -0.044918783 -0.01589699
0.03036785 -0.023166815 -0.07094161 -0.010190786 0.07134795 0.03566038 0.022401769 -0.08345597
-0.034550767 -0.06244945 -0.059302386 0.029046444 0.047833398 0.061959475 -0.01517583 -0.055364583
0.05368134 -0.004874088 -0.0636729 -0.05498259 -0.06696863 0.038949106 -0.054915205 0.048224516
-0.003387664 0.038041852 0.0210726 -0.08344633 0.0067588384 0.047859695 0.011894981 0.053273913
-0.0022957544 0.063358955 0.020001458 -0.06951618 -0.054842826 0.07073825 -0.04336684 0.037370373
-0.03645744 0.036255438 -0.015574397 0.009229693 0.008852904 -0.03737831 -0.022256939 -0.014810963
-0.04057694 0.048073623 0.03690068 -0.020088986 -0.031777464 -0.061925836 0.014529959 -0.040189005
-0.07521125 -0.078601696 0.004941426 -0.048206534 -0.0057947105 -0.042720854 -0.0646974 -0.081517585
-0.04536568 0.07583106 -0.0045359903 -0.08266943 0.014358743 -0.0590325 -0.08007275 0.063595295
-0.079506606 0.059035555 -0.056473825 0.050690845 -0.0647766 0.015411932 0.015329157 0.0040288474
0.053566173 -0.033278536 0.050946016 0.029823596 0.06629147 0.0064687785 -0.04794794 0.016458075
0.005796734 0.052168373 -0.04577273 0.073242374 -0.043769263 0.002500512 -0.017411767 -0.068257146
0.0036510066 0.0738117 -0.04046982 -0.020235665 0.017855337 -0.026389077 -0.025313951 0.04710904
-0.00403209 0.063027576 -0.06696865 0.07999248 0.08063435 -0.035146635 -0.021230223 -0.020579776
-0.024026196 -0.012680046 0.011624299 0.028540056 -0.0763634 0.063200146 -0.069155335 0.040926285
-0.006677593 0.06260393 -0.0064741224 0.03157414 0.061762083 0.019188756 0.08015314 -0.07072026
0.060265385 -0.0007240227 0.012063851 -0.02945932 0.031846814 -0.025702879 -0.07599497 -0.024194527
0.006182658 0.02590934 -0.017953742 -0.0036692666 -0.07747167 0.04150566 0.0042080274 -0.013479868
-0.030970069 -0.010467857 0.014879717 0.03769452 -0.039771326 0.052602824 -0.029909672 0.061146237
-0.012047131 0.015846135 0.054599006 -0.05344356 0.04125347 -0.00771768 0.0073935473 -0.039231334
-0.00035918516 0.06823655 -0.07323514 0.04517484 0.048407916 0.068471335 0.016213762 -0.05740422
0.028767025 -0.041532323 0.08370031 0.035723414 0.059744902 0.04358632 -0.05214332 0.029687582
0.011958723 -0.02324349 0.006529033 0.019863153 -0.04250326 0.02037611 0.017828738 -0.020950664
0.018212229 -0.05289238 0.027319586 0.029787617 -0.011577474 -0.067050405 -0.006780508 -0.05136806
-0.032086924 -0.0052285143 -0.035602644 -0.00040631645 0.024193821 0.028859647 -0.06383346 -0.031511296
-0.016666723 -0.0629198 -0.058266737 0.05582326 -0.055174757 -0.059946302 0.07937599 0.06229796
0.07582429 0.032909777 0.0075412253 0.004656095 -0.0392413 -0.03402067 0.031135105 -0.05032115
-0.028371725 -0.0023682278 0.009830496 0.027673742 -0.013478829 0.030080637 0.050536197 0.039079037
0.043462373 0.028977055 -0.033206772 -0.054595217 0.058757097 0.02120677 0.027998587 -0.031754058
0.06689144 -0.0660217 0.0034919903 -0.063778855 -0.03838224 0.024131143 -0.03813222 -0.05383189
00000000: 0858 0a3c 9e2d 76bd 22ed 07bd 2a19 04bd
00000010: 594c 243d fe1d 08bc 7457 a5bd dc6b 90bd
00000020: 3838 693c 8a4c c13b 2af8 b4bc 6a47 f63b
00000030: a8ac bcbc cfe4 813d c2fc 37bd 683a 82bc
00000040: ffc5 f83c 55c8 bdbc d649 91bd 41f7 26bc
00000050: e01e 923d 9e10 123d ea83 b73c f7ea aabd
00000060: 1b85 0dbd ffca 7fbd 0fe7 72bd cff2 ed3c
00000070: f4ec 433d 38c9 7d3d 0ba4 78bc f9c5 62bd
00000080: f7e0 5b3d d0b6 9fbb f066 82bd 6d35 61bd
00000090: d926 89bd 1989 1f3d c4ee 60bd 1287 453d
000000a0: 9203 5ebb c6d1 1b3d 72a0 ac3c e9e5 aabd
000000b0: 3f79 dd3b 8708 443d 2be3 423c bf35 5a3d
000000c0: 5e74 16bb 57c2 813d 19da a33c 805e 8ebd
000000d0: dfa2 60bd 37df 903d 6da1 31bd ad11 193d
000000e0: 6654 15bd 9580 143d c12b 7fbc 2338 173c
000000f0: c50b 113c 001a 19bd 2f54 b6bc aea9 72bc
00000100: 0134 26bd d9e8 443d 2b25 173d a891 a4bc
00000110: 1629 02bd f2a5 7dbd 110f 6e3c 3a9d 24bd
00000120: 5b08 9abd edf9 a0bd b0eb a13b 3774 45bd
00000130: 8ee1 bdbb 10fc 2ebd 1280 84bd b1f2 a6bd
00000140: 5dd1 39bd 514d 9b3d a5a2 94bb 974e a9bd
00000150: ef40 6b3c 10cc 71bd 2ffd a3bd 403e 823d
00000160: 5cd4 a2bd 44cf 713d 1951 67bd 34a1 4f3d
00000170: 98a9 84bd 5482 7c3c 2527 7b3c 6c04 843b
00000180: 3468 5b3d 134f 08bd c5ac 503d 9d50 f43c
00000190: d2c3 873d 0cf8 d33b 0f65 44bd 16d3 863c
000001a0: 87f2 bd3b 81ae 553d 307c 3bbd 1900 963d
000001b0: 6647 33bd a1df 233b 1fa3 8ebc 67ca 8bbd
000001c0: ba45 6f3b 972a 973d afc3 25bd 44c5 a5bc
000001d0: 5b45 923c e82d d8bc 345f cfbc 69f5 403d
000001e0: 9f1f 84bb 9a14 813d dc26 89bd 19d3 a33d
000001f0: 9f23 a53d ebf5 0fbd 01eb adbc eb96 a8bc
00000200: 96d2 c4bc f8bf 4fbc d873 3e3c d6cc e93c
00000210: 6a64 9cbd 146f 813d 50a1 8dbd 52a2 273d
00000220: b6cf dabb 7d36 803d e024 d4bb e353 013d
00000230: 3dfa 7c3d bd31 9d3c 5427 a43d c9d5 90bd
00000240: d6d8 763d 57cc 3dba 75a7 453c ac54 f1bc
00000250: ce71 023d d88e d2bc 40a3 9bbd 9a33 c6bc
00000260: e597 ca3b d33f d43c ba13 93bc 1478 70bb
00000270: 78a9 9ebd d701 2a3d 7ee3 893b aada 5cbc
00000280: f1b4 fdbc 6081 2bbc 0eca 733c 9265 1a3d
00000290: 42e7 22bd 0f76 573d 2105 f5bc 7a74 7a3d
000002a0: 5461 45bc c1cf 813c 35a3 5f3d a2e7 5abd
000002b0: 66f9 283d 98e4 fcbb 9245 f23b 09b1 20bd
000002c0: 0451 bcb9 9bbf 8b3d 4efc 95bd 4109 393d
000002d0: 6147 463d b33a 8c3d b9d2 843c b020 6bbd
000002e0: d3a8 eb3c cc1d 2abd 116b ab3d b752 123d
000002f0: 12b7 743d 9287 323d 3c94 55bd 5f33 f33c
00000300: 85ee 433c 2269 bebc 80f1 d53b 0db8 a23c
00000310: e617 2ebd cdeb a63c 930d 923c baa0 abbc
00000320: d031 953c aea5 58bd 53cd df3c 2905 f43c
00000330: 72af 3dbc b951 89bd 062f debb 5167 52bd
00000340: 946d 03bd f553 abbb 14d4 11bd df06 d5b9
00000350: 1f32 c63c 116b ec3c 1ebb 82bd fd11 01bd
00000360: a788 88bc 19dc 80bd 1aa9 6ebd eea6 643d
00000370: edfe 61bd 418a 75bd e18f a23d 252c 7f3d
00000380: c449 9b3d 67cc 063d 621c f73b 2892 983b
00000390: 7cbb 20bd 4259 0bbd 0c0f ff3c 8d1d 4ebd
000003a0: d26b e8bc 4534 1bbb 1710 213c 0bb4 e23c
000003b0: 4ed6 5cbc ab6b f63c 0bff 4e3d 5711 203d
000003c0: 9a05 323d 4a61 ed3c d303 08bd 3c9f 5fbd
000003d0: 48ab 703d d2b9 ad3c 4b5d e53c 8b10 02bd
000003e0: 61fe 883d 6336 87bd e0d9 643b 7d9e 82bd
000003f0: b236 1dbd adae c53c 8830 1cbd d47e 5cbd

conv2.bias f4 [32]
0.041420214 0.06201815 -0.0046135415 0.047569383 0.046331886 -0.009713935 0.07852756 0.047627665
-0.070430964 0.00028355734 0.04351709 0.05215682 0.024382895 -0.068091296 -0.021874355 0.078132465
-0.04785762 0.04903542 0.08293275 -0.0020233674 0.011477188 -0.08012799 0.069738664 -0.06449058
0.06394715 0.009566651 -0.060976546 0.004761084 -0.050094705 -0.00974022 -0.02937915 0.047133658
00000000: 3ea8 293d be06 7e3d 312d 97bb 1dd8 423d
00000010: 81c6 3d3d 3227 1fbc 0fd3 a03d 3a15 433d
00000020: 1c3e 90bd 6caa 9439 fa3e 323d 64a2 553d
00000030: a3be c73c 7373 8bbd d931 b3bc ea03 a03d
00000040: 5a06 44bd 5dd9 483d a5d8 a93d 799a 04bb
00000050: d10a 3c3c 251a a4bd 25d3 8e3d a313 84bd
00000060: b9f6 823d 71bd 1c3c 8bc2 79bd de02 9c3b
00000070: 1b30 4dbd 7295 1fbc 8bac f0bc 390f 413d

conv3.weight f4 [16, 32, 3, 3]
0.017947834 -0.008706895 -0.02005346 -0.0071831676 -0.0006010557 0.05025364 -0.046763115 -0.0091446405
0.048937775 -0.009051217 0.0441785 0.05450864 0.010647433 0.018235628 0.0036100755 -0.011836753
-0.04189504 0.021339534 0.054536466 -0.03868063 0.00646505 -0.03491347 -0.01638613 0.017079271
-0.008103095 -0.025007447 -0.039153177 -0.03241582 0.018790606 0.038225166 -0.029463623 0.049078714
-0.029648438 -0.01633329 0.005500344 0.025195356 -0.04541403 -0.020759678 -0.05210672 -0.019232854
0.041134797 0.04356774 -0.05356577 0.014915196 -0.034729894 0.05280338 0.017783687 0.03808201
-0.0047066603 0.02046138 -0.008805407 0.03588438 -0.045785517 0.05143823 -0.019682948 0.024016203
-0.026256634 0.018369615 -0.05174449 0.005235225 -0.035189223 0.052468468 0.03810605 -0.05264506
0.010560764 0.03818021 0.0022208847 -0.057842843 -0.05605461 -0.05748283 0.019206498 0.020955605
0.016009623 0.05111778 -0.050811987 -0.048218872 -0.04731083 0.046918653 0.048588905 0.05516926
-0.050184954 -0.03391023 0.052446913 -0.03979769 -0.0050862785 0.015325545 -0.0095515605 0.047975447
-0.020895097 0.04675999 -0.0020543244 -0.0052275625 -0.03397595 -0.03156501 0.00014166116 0.02364587
0.022958774 0.04833539 0.0018141193 -0.031640317 -0.0024832115 -0.039016627 -0.014603258 -0.0430887
0.016148623 -0.009649136 0.053171612 -0.038890947 -0.042931553 -0.026951436 -0.0049376725 0.019621866
0.01876199 -0.0337135 0.013823792 0.0036610912 0.015053957 0.040510196 -0.046546176 -0.037932165
-0.01847235 -0.009000666 -0.013855915 0.05301861 0.017056333 0.019420953 -0.023072174 0.055520438
0.024458015 -0.005626751 0.047954593 0.005346174 0.029594515 0.0075028376 -0.03808253 -0.007901017
0.0577223 0.040724106 -0.026349956 0.053264804 -0.047117133 0.016408699 -0.049308833 -0.016704345
0.04941418 -0.0110826725 0.010296492 -0.0039497437 0.033420682 0.04743764 -0.042679686 0.012709532
-0.054317378 -0.025957378 -0.03059141 -0.043314304 -0.009169071 -0.0449016 0.03237903 0.038920436
0.039125063 -0.055694457 -0.023134438 0.012731838 -0.05501258 -0.036446027 0.040575545 -0.049080364
0.045261297 0.038411174 -0.037205044 -0.020397076 -0.044230882 0.03335004 -0.0015810322 -0.045511644
-0.052189834 -0.026240386 -0.024667079 -0.045873784 -0.014145306 -0.025255501 -0.028976722 -0.014465021
-0.02896558 -0.050053455 -0.037886724 -0.056999814 -0.026013019 -0.015461527 0.02323531 -0.041776735
0.036445245 -0.0508486 0.05354557 -0.030136311 -0.037617393 -0.027507551 0.004488508 0.031517945
0.0504511 -0.048014767 -0.0036818122 -0.04760386 0.024551671 0.0086084725 0.022074059 -0.038840383
-0.026000304 0.0397697 -0.01550906 -0.045435492 0.036392275 -0.04243078 -0.055067755 -0.022486739
-0.024112405 -0.040249996 -0.032126486 0.009689075 -0.010031412 -0.03809107 0.0578288 0.024549909
-0.028744701 0.055939507 0.02569455 -0.024155563 0.034746904 0.03502057 0.052156053 -0.022647591
0.041243155 0.051921267 0.05566869 -0.042475082 0.020185594 0.037411917 -0.030830069 -0.038012646
-0.04680471 -0.056187537 -0.0489853 -0.039471366 0.055226058 0.002046579 -0.007072532 -0.009384776
-0.033680245 -0.04879702 -0.015455815 0.006114578 -0.055055056 -0.0072251107 -0.029265247 0.0322847
00000000: 5607 933c 5da7 0ebc 2747 a4bc c760 ebbb
00000010: 2a90 1dba c3d6 4d3d ae8a 3fbd 67d3 15bc
00000020: fa72 483d 8e4b 14bc 84f4 343d 7444 5f3d
00000030: 9272 2e3c e262 953c 0497 6c3b f1ee 41bc
00000040: 229a 2bbd 3fd0 ae3c a161 5f3d 956f 1ebd
00000050: c5d8 d33b 6d01 0fbd 353c 86bc d4e9 8b3c
00000060: d8c2 04bc 6bdc ccbc 155f 20bd 73c6 04bd
00000070: c2ee 993c fe91 1c3d b25d f1bc c306 493d
00000080: 48e1 f2bc 64cd 85bc 3b3c b43b 7e66 ce3c
00000090: 1004 3abd 3310 aabc db6d 55bd 388e 9dbc
000000a0: f67c 283d 1674 323d c867 5bbd de5e 743c
000000b0: ef40 0ebd 5b48 583d 18af 913c e2fb 1b3d
000000c0: 543a 9abb a09e a73c 8e44 10bc 80fb 123d
000000d0: 9889 3bbd e5b0 523d 223e a1bc a1bd c43c
000000e0: 2718 d7bc e07b 963c 08f2 53bd 408c ab3b
000000f0: 9322 10bd 2de9 563d 1715 1c3d 59a2 57bd
00000100: 0e07 2d3c da62 1c3d 438c 113b 9eec 6cbd
00000110: 8599 65bd 1e73 6bbd f256 9d3c 17ab ab3c
00000120: 9d26 833c e160 513d 3b20 50bd 2781 45bd
00000130: 00c9 41bd c62d 403d 2905 473d 29f9 613d
00000140: bd8e 4dbd 74e5 0abd 93d2 563d e702 23bd
00000150: ccaa a6bb ff17 7b3c 267e 1cbc e781 443d
00000160: 322c abbc 6787 3f3d d8a1 06bb f94b abbb
00000170: 5e2a 0bbd 504a 01bd e18a 1439 fcb4 c13c
00000180: 0a14 bc3c 54fb 453d bec7 ed3a 4799 01bd
00000190: 60bd 22bb e6cf 1fbd 8142 6fbc c77d 30bd
000001a0: 1e4a 843c 6917 1ebc 7aca 593d 1d4c 1fbd
000001b0: ffd8 2fbd 42c9 dcbc 33cc a1bb 09be a03c
000001c0: bfb2 993c 2b17 0abd 307d 623c ebee 6f3b
000001d0: dfa4 763c 05ee 253d 34a7 3ebd c25e 1bbd
000001e0: 5353 97bc 8877 13bc eb03 63bc 0b2a 593d
000001f0: b9b9 8b3c b118 9f3c db01 bdbc 6669 633d
00000200: 2d5c c83c 9c60 b8bb 096c 443d f52e af3b
00000210: 3270 f23c 5dda f53b 6dfc 1bbd 4473 01bc
00000220: 386e 6c3d 52ce 263d dddb d7bc 322c 5a3d
00000230: e5fd 40bd 896b 863c 0ff8 49bd 8dd7 88bc
00000240: 8666 4a3d 1994 35bc 9eb2 283c da6c 81bb
00000250: 20e4 083d f94d 423d e5d0 2ebd a43b 503c
00000260: e67b 5ebd 91a4 d4bc d69a fabc 576a 31bd
00000270: df39 16bc bdea 37bd e09f 043d 096b 1f3d
00000280: 9a41 203d df1f 64bd 6f84 bdbc 3399 503c
00000290: df54 61bd 6e48 15bd 8b32 263d 7e08 49bd
000002a0: e963 393d 0955 1d3d 5164 18bd c517 a7bc
000002b0: 712b 35bd 0d9a 083d a33a cfba 6b6a 3abd
000002c0: 02c5 55bd 14f6 d6bc 9d12 cabc 26e6 3bbd
000002d0: b7c1 67bc a0e4 cebc 9760 edbc b2fe 6cbc
000002e0: 3949 edbc da04 4dbd 1c2f 1bbd a378 69bd
000002f0: 4119 d5bc 5852 7dbc fa57 be3c 151e 2bbd
00000300: 9c47 153d 9f46 50bd 9952 5b3d 6de0 f6bc
00000310: b214 1abd 8457 e1bc 5614 933b f618 013d
00000320: d0a5 4e3d 22ab 44bd 8f4a 71bb 44fc 42bd
00000330: 9620 c93c 8d0a 0d3c a8d4 b43c 1817 1fbd
00000340: 97fe d4bc 8ee5 223d b619 7ebc 911a 3abd
00000350: 1110 153d e6cb 2dbd ba8e 61bd 1c36 b8bc
00000360: 6187 c5bc 2edd 24bd 1097 03bd edbe 1e3c
00000370: cb5a 24bc 6205 1cbd e4dd 6c3d e41c c93c
00000380: 027a ebbc d320 653d 607d d23c e3e1 c5bc
00000390: c552 0e3d bb71 0f3d 96a1 553d 7187 b9bc
000003a0: 95ee 283d 65ab 543d da04 643d 5afa 2dbd
000003b0: 425c a53c 3d3d 193d 578f fcbc 26b3 1bbd
000003c0: 4cb6 3fbd e724 66bd cfa4 48bd baac 21bd
000003d0: b834 623d e61f 063b b3c0 e7bb 9bc2 19bc
000003e0: 4cf4 09bd 62df 47bd 633a 7dbc cc5c c83b
000003f0: 6981 61bd 9fc0 ecbb acbd efbc f63c 043d

conv3.bias f4 [16]
0.054422647 -0.025925815 0.056002695 -0.03412386 0.057861812 0.048342686 0.022921536 0.027045168
0.027092164 -0.026299747 -0.040351875 0.034625944 0.007978547 0.02074382 0.03576335 -0.010738605
00000000: 48ea 5e3d 6062 d4bc 1563 653d 76c5 0bbd
00000010: 8200 6d3d fb02 463d f2c5 bb3c d48d dd3c
00000020: 63f0 dd3c 9172 d7bc 0248 25bd efd3 0d3d
00000030: 74b8 023c f2ee a93c 977c 123d f9f0 2fbc

conv4.weight f4 [2, 16, 5, 5]
-0.019450432 0.011594517 -0.020658197 -0.008635398 0.023303296 -0.043281842 0.042387187 -0.03221755
-0.021269957 -0.0068720854 -0.0059052915 -0.009437138 0.022899747 -0.0068886103 0.025613433 -0.018461367
0.016864222 -0.02169386 0.015438242 0.021948395 -0.023998264 -0.045476694 -0.019075487 0.022686532
-0.033724498 -0.008429951 0.033080507 -0.030232862 0.010707873 -0.015379793 0.031637833 0.017151516
-0.026899727 0.047511056 -0.02053112 0.040390216 -0.03402258 0.04958295 -0.042226393 0.04832745
-0.04235 0.022341495 0.03270524 0.030201165 -0.016211849 0.013845751 -0.01659735 0.029308481
-0.038657144 -0.04121081 -0.009141989 -0.04729071 0.044446554 0.043201476 0.025550168 0.04029043
-0.009099066 -0.037328716 -0.028262742 -0.011835891 0.028690528 0.002957729 -0.03290669 0.013760784
0.035869237 -0.03286991 -0.03724528 0.04087503 0.034127526 -0.0027228876 0.03151348 -0.015946811
0.019439174 -0.023572063 0.025860915 0.040461756 0.014849357 0.030815473 -0.03683289 0.022625946
-0.03486743 -0.008725708 -0.035982985 -0.028831763 -0.02021689 0.046245232 -0.028002843 0.014923778
-0.0385065 0.009982966 -0.011560174 -0.02910677 0.0064913942 -0.0046505476 0.055706147 -0.013396663
-0.01750447 0.03735193 0.027128201 -0.030023191 0.019146016 -0.052625097 0.041038174 -0.030810783
-0.010689991 -0.020349896 0.012566915 -0.012450269 -0.04931855 0.006171228 -0.016211662 0.009242407
0.029040597 -0.025436232 0.047761824 0.009386621 -0.028969279 -0.013397185 -0.037891377 0.024626177
0.017430335 0.020526906 -0.0062881205 0.011418343 -0.04203473 0.032830607 -0.024314294 -0.040426627
-0.02744513 -0.018499272 0.014440893 -0.028011689 0.005988494 0.04260842 -0.014213543 -0.0330268
-0.012999112 0.029426336 0.016198622 0.0035162382 -0.022624318 -0.04710511 -0.033864237 0.030634835
0.035060443 0.040225893 -0.007114082 0.04569745 -0.041563347 -0.014964491 0.05006162 -0.032333363
-0.02116334 -0.01571839 0.027155083 0.015042799 0.03954841 -0.025091274 -0.023113959 0.0053743217
-0.027806688 -0.022337241 -0.048885502 -0.008612621 0.01936034 0.025725903 0.03471732 0.041752245
0.040652514 0.014475288 -0.010010969 0.021646405 -0.007195394 0.04572296 -0.0122875655 -0.04364368
-0.048057765 -0.039885808 -0.045546748 -0.0058503184 0.019112553 -0.019489948 0.0023908436 -0.017266776
0.004371412 -0.04734242 -0.012782347 -0.013362161 0.006217042 0.011982232 0.031793825 -0.014005473
0.025152743 -0.024159074 0.0012834233 -0.046706222 0.016437603 -0.037337855 -0.0497642 0.010158365
-0.008023638 -0.045207854 0.035675574 0.027010785 0.04883195 0.02575156 0.0062759356 0.015622881
0.011367248 -0.012448421 -0.046624377 0.020083431 0.028725559 -0.014820507 -0.0023228417 0.01232989
-0.03648803 0.036885332 0.03134175 -0.019345375 -0.04392075 -0.022668349 -0.013924179 -0.044398345
0.0063996837 -0.044305272 -0.023884522 -0.04571987 -0.0284795 -0.045800567 -0.019286374 -0.00038349192
0.040199675 0.04203035 0.008627856 -0.03836747 0.020330392 -0.012181671 -0.021987103 0.04242006
-0.009078252 0.0014616767 0.01580549 -0.010016499 0.04271223 0.0030518598 0.008620748 0.007834508
-0.010411132 -0.0078077894 0.009012691 -0.00932301 0.0051483912 0.016817162 -0.018706797 0.017309714
00000000: 8356 9fbc eef6 3d3c 613b a9bc 7c7b 0dbc
00000010: 8ee6 be3c 4d48 31bd 309e 2d3d 8df6 03bd
00000020: 553e aebc 3b2f e1bb 2d81 c1bb 3a9e 1abc
00000030: 4098 bb3c dab9 e1bb 43d3 d13c 4b3c 97bc
00000040: d626 8a3c 52b7 b1bc aef0 7c3c 1fcd b33c
00000050: 0298 c4bc c545 3abd 3244 9cbc 1bd9 b93c
00000060: b322 0abd c71d 0abc 6d7f 073d e8aa f7bc
00000070: 1370 2f3c 87fb 7bbc ac96 013d 5681 8c3c
00000080: d15c dcbc f49a 423d e130 a8bc 3670 253d
00000090: 435b 0bbd 7e17 4b3d 95f5 2cbd 01f3 453d
000000a0: 3277 2dbd 8305 b73c eef5 053d 6f68 f73c
000000b0: b6ce 84bc 4ad9 623c 2af7 87bc 5718 f03c
000000c0: f456 1ebd abcc 28bd 48c8 15bc e7b3 41bd
000000d0: 970d 363d 08f4 303d 964e d13c 9407 253d
000000e0: 4014 15bc ffe5 18bd 4487 e7bc 53eb 41bc
000000f0: 6608 eb3c 75d6 413b 2ac9 06bd e974 613c
00000100: 9feb 123d 99a2 06bd 828e 18bd 936c 273d
00000110: 4ec9 0b3d 7972 32bb 4714 013d e3a2 82bc
00000120: e73e 9f3c 331a c1bc 45da d33c 3abb 253d
00000130: b84a 733c bb70 fc3c 16de 16bd 0c5a b93c
00000140: 26d1 0ebd 46f6 0ebc e562 13bd 9730 ecbc
00000150: e49d a5bc a46b 3d3d 3866 e5bc dd82 743c
00000160: feb8 1dbd 988f 233c e266 3dbc 5271 eebc
00000170: c3b5 d43b 9f63 98bb 212c 643d ad7d 5bbc
00000180: 8965 8fbc 56fe 183d f63b de3c 32f3 f5bc
00000190: 1bd8 9c3c 6a8d 57bd a517 283d e566 fcbc
000001a0: 1225 2fbc d3b4 a6bc 76e5 4d3c 37fc 4bbc
000001b0: 3f02 4abd 0338 ca3b 52ce 84bc 776d 173c
000001c0: 8ce6 ed3c a55f d0bc e7a1 433d 58ca 193c
000001d0: fb50 edbc de7f 5bbc fd33 1bbd d6bc c93c
000001e0: 10ca 8e3c 0b28 a83c 940c cebb 0014 3b3c
000001f0: 9c2c 2cbd 6379 063d c52e c7bc 6496 25bd
00000200: 9cd4 e0bc c98b 97bc 7f99 6c3c c578 e5bc
00000210: 213b c43b 2b86 2e3d ecdf 68bc 1c47 07bd
00000220: 3afa 54bc 800f f13c f9b2 843c b070 663b
00000230: a256 b9bc 4af1 40bd 3ab5 0abd e8f5 fa3c
00000240: 8a9b 0f3d e8c3 243d 3f1d e9bb 402d 3b3d
00000250: 543e 2abd a02d 75bc 6a0d 4d3d fd6f 04bd
00000260: be5e adbc dac3 80bc 5674 de3c 1276 763c
00000270: 83fd 213d 378c cdbc 7c59 bdbc 141b b03b
00000280: daca e3bc 97fc b6bc 2a3c 48bd f31b 0dbc
00000290: 9399 9e3c 21bf d23c c033 0e3d 6704 2b3d
000002a0: 4083 263d c229 6d3c 0c05 24bc cd53 b13c
000002b0: 57c7 ebbb 0048 3b3d c951 49bc b7c3 32bd
000002c0: 38d8 44bd 4d5f 23bd 3a8f 3abd 07b4 bfbb
000002d0: ee91 9c3c 62a9 9fbc b3af 1c3b 0e73 8dbc
000002e0: 103e 8f3b 20ea 41bd 0d6d 51bc f7ec 5abc
000002f0: 54b8 cb3b 2051 443c 3e3a 023d 3677 65bc
00000300: 200d ce3c 40e9 c5bc 8a38 a83a 064f 3fbd
00000310: 27a8 863c 94ef 18bd 8cd5 4bbd 456f 263c
00000320: 9475 03bc df2b 39bd 8d20 123d b945 dd3c
00000330: 0304 483d f0f4 d23c 5da6 cd3b 1df7 7f3c
00000340: b23d 3a3c 76f4 4bbc 34f9 3ebd 0286 a43c
00000350: dd51 eb3c b6d1 72bc d13a 18bb 4f03 4a3c
00000360: 7974 15bd 1315 173d 3560 003d 317a 9ebc
00000370: 3fe6 33bd f9b2 b9bc 3d22 64bc 0adb 35bd
00000380: 70b4 d13b 7279 35bd 79a9 c3bc c244 3bbd
00000390: d74d e9bc 6099 3bbd 75fe 9dbc 6a0f c9b9
000003a0: 6aa8 243d 0428 2c3d da5b 0d3c 3527 1dbd
000003b0: ec8b a63c a295 47bc 4c1e b4bc a8c0 2d3d
000003c0: f3bc 14bc bb95 bf3a 847a 813c 3e1c 24bc
000003d0: 05f3 2e3d b601 483b 0a3e 0d3c 4f5c 003c
000003e0: 7493 2abc 7cd8 ffbb f7a9 133c 8abf 18bc
000003f0: d6b3 a83b 25c4 893c ff3e 99bc 1acd 8d3c

conv4.bias f4 [2]
-0.030822305 0.0028140228
00000000: 0f7f fcbc 786b 383b
